
----------------------------------------------------------------
        Layer (type)               Output Shape         Param #
================================================================
            Conv2d-1         [-1, 64, 512, 512]           1,792
              ReLU-2         [-1, 64, 512, 512]               0
            Conv2d-3         [-1, 64, 512, 512]          36,928
              ReLU-4         [-1, 64, 512, 512]               0
         MaxPool2d-5         [-1, 64, 256, 256]               0
            Conv2d-6        [-1, 128, 256, 256]          73,856
              ReLU-7        [-1, 128, 256, 256]               0
            Conv2d-8        [-1, 128, 256, 256]         147,584
              ReLU-9        [-1, 128, 256, 256]               0
        MaxPool2d-10        [-1, 128, 128, 128]               0
           Conv2d-11        [-1, 256, 128, 128]         295,168
             ReLU-12        [-1, 256, 128, 128]               0
           Conv2d-13        [-1, 256, 128, 128]         590,080
             ReLU-14        [-1, 256, 128, 128]               0
        MaxPool2d-15          [-1, 256, 64, 64]               0
           Conv2d-16          [-1, 512, 64, 64]       1,180,160
             ReLU-17          [-1, 512, 64, 64]               0
           Conv2d-18          [-1, 512, 64, 64]       2,359,808
             ReLU-19          [-1, 512, 64, 64]               0
         Upsample-20        [-1, 512, 128, 128]               0
           Conv2d-21        [-1, 256, 128, 128]       1,769,728
             ReLU-22        [-1, 256, 128, 128]               0
           Conv2d-23        [-1, 256, 128, 128]         590,080
             ReLU-24        [-1, 256, 128, 128]               0
         Upsample-25        [-1, 256, 256, 256]               0
           Conv2d-26        [-1, 128, 256, 256]         442,496
             ReLU-27        [-1, 128, 256, 256]               0
           Conv2d-28        [-1, 128, 256, 256]         147,584
             ReLU-29        [-1, 128, 256, 256]               0
         Upsample-30        [-1, 128, 512, 512]               0
           Conv2d-31         [-1, 64, 512, 512]         110,656
             ReLU-32         [-1, 64, 512, 512]               0
           Conv2d-33         [-1, 64, 512, 512]          36,928
             ReLU-34         [-1, 64, 512, 512]               0
           Conv2d-35          [-1, 1, 512, 512]              65
================================================================
Total params: 7,782,913
Trainable params: 7,782,913
Non-trainable params: 0
----------------------------------------------------------------
Input size (MB): 3.00
Forward/backward pass size (MB): 2362.00
Params size (MB): 29.69
Estimated Total Size (MB): 2394.69
----------------------------------------------------------------
the size of train_files: {}. 500
…
